The length of the dataset = 1998
==========================================================================================
Layer (type:depth-idx)                   Output Shape              Param #
==========================================================================================
BrogrammersModel                         [64, 1]                   --
├─Conv2d: 1-1                            [64, 64, 13, 257]         640
├─MaxPool2d: 1-2                         [64, 64, 6, 128]          --
├─Conv2d: 1-3                            [64, 64, 5, 127]          16,448
├─BatchNorm2d: 1-4                       [64, 64, 5, 127]          128
├─Linear: 1-5                            [64, 256]                 10,404,096
├─Linear: 1-6                            [64, 128]                 32,896
├─Linear: 1-7                            [64, 1]                   129
==========================================================================================
Total params: 10,454,337
Trainable params: 10,454,337
Non-trainable params: 0
Total mult-adds (G): 1.47
==========================================================================================
Input size (MB): 0.99
Forward/backward pass size (MB): 151.29
Params size (MB): 41.82
Estimated Total Size (MB): 194.10
…
